Model Structure:
_________________________________________________________________
Layer (type)                 Output Shape              Param #   
=================================================================
dense_1 (Dense)              (None, 148)               44548     
_________________________________________________________________
activation_1 (Activation)    (None, 148)               0         
_________________________________________________________________
batch_normalization_1 (Batch (None, 148)               592       
_________________________________________________________________
dropout_1 (Dropout)          (None, 148)               0         
_________________________________________________________________
dense_2 (Dense)              (None, 148)               22052     
_________________________________________________________________
activation_2 (Activation)    (None, 148)               0         
=================================================================
Total params: 67,192
Trainable params: 66,896
Non-trainable params: 296
_________________________________________________________________


========================================================


Model Configuration:

Layer 0:

{"kernel_initializer": {"class_name": "VarianceScaling", "config": {"distribution": "uniform"
…
