Model Structure:
_________________________________________________________________
Layer (type)                 Output Shape              Param #   
=================================================================
dense_1 (Dense)              (None, 148)               44548     
_________________________________________________________________
activation_1 (Activation)    (None, 148)               0         
_________________________________________________________________
dense_2 (Dense)              (None, 296)               44104     
_________________________________________________________________
activation_2 (Activation)    (None, 296)               0         
_________________________________________________________________
dense_3 (Dense)              (None, 148)               43956     
_________________________________________________________________
activation_3 (Activation)    (None, 148)               0         
=================================================================
Total params: 132,608
Trainable params: 132,608
Non-trainable params: 0
_________________________________________________________________


========================================================


Model Configuration:

Layer 0:

{"kernel_initializer": {"class_name": "VarianceScaling", "config": {"distribution": "uniform"
…
