Model Structure:
_________________________________________________________________
Layer (type)                 Output Shape              Param #   
=================================================================
dense_1 (Dense)              (None, 148)               44548     
_________________________________________________________________
activation_1 (Activation)    (None, 148)               0         
_________________________________________________________________
batch_normalization_1 (Batch (None, 148)               592       
_________________________________________________________________
dropout_1 (Dropout)          (None, 148)               0         
_________________________________________________________________
dense_2 (Dense)              (None, 296)               44104     
_________________________________________________________________
activation_2 (Activation)    (None, 296)               0         
_________________________________________________________________
batch_normalization_2 (Batch (None, 296)               1184      
_________________________________________________________________
dropout_2 (Dropout)          (None, 296)               0         
_________________________________________________________________
dense_3 (Dense)              (None, 296)               87912     
_________________________________________________________________
activation_3 (Activation)    (None, 296)               0         
_________________________________________________________________
batch_normalization_3 (Batch (None, 296)               1184      
_________________________________________________________________
dropout_3 (Dropout)          (None, 296)               0         
_________________________________________________________________
dense_4 (Dense)              (None, 148)               43956     
_________________________________________________________________
activation_4 (Activation)    (None, 148)               0         
=================================================================
Total params: 223,480
Trainable params: 222,000
Non-trainable params: 1,480
_________________________________________________________________


========================================================


Model Configuration:

Layer 0:

{"kernel_initializer": {"class_name": "VarianceScaling", "config": {"distribution": "unif
…
